models/trained_model.pth (torch, 12932 bytes, 5 tensors)

fc1.weight f4 [64, 6]
000000 3c 02 71 3e 98 9c a7 3e c9 de c1 3e d3 05 da 3e
       0.23536009 0.3273666 0.37865284 0.4258257
000010 ff bd 6e 3e a2 75 fd bc d6 18 12 3e 8f 20 88 be
       0.23314665 -0.03093988 0.14267287 -0.2658734
000020 d7 d2 23 be c4 a1 4a 3e 9a ed 14 be 2e a3 77 3e
       -0.15998398 0.19788271 -0.14543763 0.24183342
000030 d1 06 3d 3e 78 b8 d6 3d bc f7 8b be 00 f6 4d 3e
       0.18459632 0.10484403 -0.27337444 0.20113373
000040 7b 71 37 3e 28 5f c8 be 96 3b 2d be c4 86 3e 3e
       0.17914383 -0.39135098 -0.16917261 0.18606097
000050 00 e2 a7 3c 64 76 37 be 07 ce 73 be ba 31 35 bd
       0.020493507 -0.17916256 -0.23809062 -0.044236876
000060 5f ca 71 bd c8 ed 64 be cb f9 08 3e 02 0e 56 bc
       -0.059030887 -0.22356331 0.13376538 -0.013064863
000070 cc 86 93 be 3f 33 1f 3d c1 bd 8d be 0a 5e 95 bd
       -0.2881378 0.03886723 -0.27683833 -0.07293327
000080 21 f6 e4 be a1 fd 86 3e 42 da 2b 3e 79 35 22 be
       -0.4471903 0.26365378 0.16782477 -0.1584071
000090 0b 29 e6 3d ce 94 af bd 3a 76 af 3e 99 34 d0 3e
       0.11238297 -0.08573304 0.34269887 0.4066513
0000a0 22 7b 45 3e be 5f b5 3e 89 db c4 bd 3b 9d be 3e
       0.19285253 0.35424608 -0.096121855 0.37229332
0000b0 07 13 46 3e e1 9b 8e 3e e3 76 93 3e 5a 62 1b 3e
       0.19343196 0.278533 0.2880164 0.15174237
0000c0 58 97 ad be 92 29 26 3e 69 65 ea bd 46 ce 2f 3e
       -0.3390453 0.16226795 -0.11445124 0.17168531
0000d0 a8 c1 8c be 2c ec 4f 3d ea 46 52 be a6 5f a2 3e
       -0.27491498 0.05076234 -0.20534864 0.317136
0000e0 49 ae 4d be a8 39 94 be 26 49 a7 3e 98 3f c0 be
       -0.20086016 -0.28950238 0.32672995 -0.37548518
0000f0 7c 62 5f 3d c8 3f a2 3e 20 93 b3 3e c8 b5 c6 3e
       0.05453728 0.31689286 0.35073185 0.38810563
000100 4a 19 a7 3b c9 5d 02 be 14 06 9c be 05 b6 af be
       0.0050994502 -0.12731089 -0.30473387 -0.34318557
000110 47 a3 c1 3e c9 3d 66 3e 26 91 c3 bd b1 fd e4 bd
       0.37819883 0.22484507 -0.09549169 -0.111812
000120 e2 04 7d bb f7 72 92 be 1f 72 98 3d 3f 03 38 3e
       -0.0038607647 -0.28603336 0.07443642 0.17969988
000130 f0 97 ad 3c 9e 81 17 be e8 4c 99 3d cc 49 86 3d
       0.021190614 -0.14795539 0.07485372 0.065570444
000140 df eb 88 3e 27 21 8c be be 2c b0 3e f1 af e3 3c
       0.26742455 -0.27369043 0.34409136 0.027793856
000150 07 93 06 3e cd 64 28 3e 52 9b 8c 3e 56 8c c6 be
       0.13142024 0.16444702 0.2746225 -0.38778943
000160 3c 0b 9f 3e 27 20 12 bd 2b 20 2e 3e 9e 7a a4 ba
       0.3106326 -0.035675194 0.17004459 -0.001254875
000170 14 43 18 be 68 a1 0d bd 2a bd b9 3e b1 db 45 3d
       -0.14869338 -0.034577757 0.36277133 0.048305217
000180 da 56 ba be df 2e fb bc 0d 46 6d 3e 41 67 8a be
       -0.36394387 -0.030661998 0.23171254 -0.270319
000190 cb d1 50 3d b5 9a a2 3e aa 01 a3 3d 5b 10 82 3e
       0.050981324 0.31758657 0.07959302 0.25403103
0001a0 17 c3 9e bd 89 99 57 be f5 0d d4 3e 65 9a 7d be
       -0.07752054 -0.21054663 0.41416898 -0.24765928
0001b0 33 1e f9 3d ae bc 92 3e 5c c4 dd 3d 64 64 87 3d
       0.12163963 0.28659576 0.10828468 0.06610945
0001c0 cf 2e b8 be 55 44 2b bd 4c 6f 2f be 80 6a b4 3e
       -0.35973212 -0.041813213 -0.171323 0.35237503
0001d0 59 81 04 be 80 2c 9d 3d d0 d8 1e be c7 b1 cb be
       -0.12939967 0.07674503 -0.15512395 -0.3978407
0001e0 2e 69 b0 be 9f 42 f2 3d 19 ab cf bc 74 8c ca 3e
       -0.34455246 0.11829113 -0.02535014 0.39560282
0001f0 80 5a 7a 3e b4 45 97 3e 59 f1 83 3e 5e 31 64 be
       0.24448586 0.29545367 0.2577007 -0.22284457
000200 f4 16 6d be 38 5f 5e be b6 cf 02 3e 3b 8a 1f be
       -0.23153287 -0.2171601 0.12774548 -0.15580074
000210 cf cc 70 3e 0b c1 5f be b7 ae 75 3e 70 82 d9 3d
       0.23515628 -0.21850984 0.2399243 0.10620582
000220 05 c9 98 3e da b8 78 be 2d 17 a2 be 73 08 d7 be
       0.29840866 -0.24289265 -0.31658307 -0.41998634
000230 d3 32 67 3d d9 27 9a bd b8 3f 5c be ba 9f b7 3c
       0.056444954 -0.075271316 -0.21508682 0.02241503
000240 6a 4a 8c 3e a4 60 a4 bd 47 a2 3e 3e d4 91 02 bd
       0.27400523 -0.08026245 0.18616591 -0.031877354
000250 9b e0 c2 3e 0f d8 c6 3e 07 f1 84 3d 52 70 6b be
       0.38061985 0.38836715 0.06491285 -0.22992066
000260 e2 26 e1 be c4 8e c5 3e bb 2c c7 be 73 c1 dc bc
       -0.43974978 0.38585484 -0.38901314 -0.026947713
000270 c2 99 bd be 1a 60 14 3e c9 d4 c2 3e c7 8c b8 3e
       -0.3703137 0.14489785 0.38052967 0.36044905
000280 87 5d 91 3e c1 28 40 3e e3 4a 91 be be 91 17 3e
       0.28391668 0.18765546 -0.28377447 0.1480169
000290 b9 1d 9a be 74 2a 20 3d 16 61 97 be c9 03 3d be
       -0.30100802 0.039102986 -0.29566258 -0.18458475
0002a0 fd 7d a7 be 3d fe 33 3e 5e ce 0e 3e 05 fa b1 be
       -0.3271331 0.17577453 0.1394591 -0.34761062
0002b0 41 92 46 be 74 6f ba 3e 64 b6 9b 3c 59 f2 04 bb
       -0.19391729 0.36413157 0.019007869 -0.0020286052
0002c0 b3 c5 d8 be 4b 28 d5 3e d5 34 87 3d af a2 a9 be
       -0.42338333 0.41632304 0.06601874 -0.3313193
0002d0 4d 35 84 bb 71 27 fd bc bb 64 0c bd 58 5c 13 bd
       -0.0040346743 -0.030902596 -0.03427575 -0.035976738
0002e0 f5 d7 37 3e 3e 1a d5 3e d3 78 ae 3e 4c 52 ba be
       0.17953475 0.41621584 0.34076557 -0.36390913
0002f0 61 3e be be 63 2d 8f be 93 d7 1b be 0d f7 9d be
       -0.37156966 -0.27964315 -0.15218954 -0.30852547
000300 b3 7f e7 be 34 0c 82 bd ec ac 3e be 33 7e 90 bd
       -0.45214614 -0.06349984 -0.18620652 -0.070553206
000310 65 5d 6d be 7c d4 b1 be 0f 7b 84 be e4 b4 e7 3e
       -0.23180158 -0.34732425 -0.25875136 0.45255196
000320 16 76 93 3e e6 8a ac be ec b6 f9 3d b8 92 9e 3e
       0.2880103 -0.3369972 0.12193093 0.30971313
000330 ca 99 c8 be 72 c7 ba 3e b6 a1 c3 3e dc ba 72 bd
       -0.39179832 0.3648029 0.38209313 -0.059260234
000340 40 f0 f1 3d ba ef 83 3e 23 ca fa 3d ab 7e 0a bd
       0.11813402 0.25768834 0.12245586 -0.033812206
000350 cf 28 42 be 9e 94 ad be 1d e9 ae be 40 bc 84 be
       -0.1896088 -0.33902448 -0.34162226 -0.25924873
000360 72 4c 81 3e 8c 67 02 3e aa a4 1f 3e 2e 24 26 3e
       0.25253636 0.12734812 0.15590158 0.16224739
000370 73 c1 b4 be 62 ee 3c 3d c8 8b 0c 3e 72 d1 89 be
       -0.3530384 0.046125777 0.13725197 -0.26917607
000380 04 35 57 bd 02 b8 20 be 59 7c fa 3c 7e 27 1e be
       -0.052540794 -0.15695193 0.030576872 -0.15444753
000390 b4 fd 6e 3e 84 c9 2f 3e fd 73 20 3d d0 83 44 be
       0.23338968 0.17166716 0.039173115 -0.19190907
0003a0 ab 71 55 be 88 73 4b 3e fa 87 bc 3d 0a 8a 9e 3e
       -0.20844142 0.1986829 0.09205623 0.3096469
0003b0 01 38 7a 3e cf 35 be be cb 68 e6 3e c4 4e a4 bd
       0.24435426 -0.37150428 0.45001826 -0.08022836
0003c0 50 9d 96 be a6 74 88 3e 43 b7 aa be c6 77 88 be
       -0.29416895 0.26651496 -0.33342943 -0.2665388
0003d0 2f 1f 19 3e 9f e6 07 be 3f 4a da 3e 10 d3 4f be
       0.14953302 -0.13271569 0.4263477 -0.20295358
0003e0 3a ac c4 be d6 4c 35 bd 1c 5d 9c 3e d1 b0 c5 bd
       -0.38412648 -0.04426273 0.30539787 -0.09652866
0003f0 2b 03 04 3e 97 2d 3c 3e 91 6f af 3e d9 a6 dc 3e
       0.12891833 0.18376766 0.34264806 0.43096045

fc1.bias f4 [64]
000000 d8 03 f1 3b ba 6b 37 3d 91 a6 3e 3e f4 92 bd 3e
       0.0073551945 0.04478047 0.18618228 0.3702618
000010 52 ff c2 3e 06 79 c4 3e 92 fb ac be fe 4f d7 3d
       0.3808542 0.38373584 -0.33785683 0.10513304
000020 50 eb 4e be 42 ee 20 3e 1f d2 1b 3e 2e 7a ef bd
       -0.20206952 0.15715888 0.15216874 -0.11693226
000030 0a 69 6f bd 61 a0 a5 be a7 64 a4 3d 93 9c 4a bd
       -0.058449782 -0.32348922 0.080270104 -0.049465727
000040 10 cc 9b be 9e 21 e5 bd dc b8 84 3e 6e df a0 3e
       -0.30429125 -0.111880526 0.25922287 0.31420463
000050 2e c5 38 3e e7 aa 4b be 2c 2a ac be ad 0b 01 be
       0.18043968 -0.19889413 -0.33625925 -0.1260211
000060 be dd ae 3c 1e 2b 89 be cd 88 5b 3e dc d5 5a bc
       0.02134597 -0.26790708 0.21438904 -0.013356652
000070 67 bf 5a 3e 18 20 98 3e 1c cf a3 3e 30 a0 66 3e
       0.21362077 0.29711986 0.3199395 0.22522044
000080 9b cb b9 3e 6c 72 03 be c9 e3 c2 3e b2 22 84 3e
       0.3628815 -0.12836617 0.3806441 0.2580772
000090 9e ee f2 3d cc 0c 8a be 40 f2 90 3e 47 f4 69 3e
       0.11861919 -0.26962888 0.28309822 0.2284709
0000a0 75 c6 b0 3e d6 95 96 3e ef 8c 49 be 34 a6 55 be
       0.3452641 0.2941119 -0.19682668 -0.20864183
0000b0 6d 37 a8 3c 3f d1 0c 3d 6a 8a 7e 3d 86 99 45 3e
       0.020534242 0.03437924 0.06214372 0.19296846
0000c0 1a 35 04 3e d6 2b c6 3e 67 e2 62 3e 87 b7 c7 3e
       0.12910882 0.3870532 0.22156678 0.39007208
0000d0 1b 6a a9 be b5 d0 39 be 49 3a 71 3e f7 71 93 3d
       -0.33088765 -0.18146022 0.2355739 0.071994714
0000e0 91 23 c9 3e cb 80 1f be 65 c4 36 bd b0 10 f2 3c
       0.39284948 -0.15576474 -0.04462089 0.029548973
0000f0 86 de 15 3e 6e 44 84 3e 27 df b5 bd 6e bb b9 3e
       0.14635667 0.25833458 -0.088804536 0.3627581

fc2.weight f4 [32, 64]
000000 3b fd 2b bd 49 0d 99 3c ef 16 02 be 19 99 c0 bd
       -0.041989546 0.018683093 -0.12704061 -0.09404201
000010 35 5a dc bb 07 7a a2 bd 89 24 01 3d b9 66 e5 bc
       -0.0067246207 -0.07933431 0.031528983 -0.028003084
000020 5d ca 08 3d 3f 7a 54 bd 40 f2 17 3e 35 fa 4b bc
       0.033396114 -0.051874395 0.14838505 -0.012449791
000030 8e b6 22 3d 2a 12 03 be e6 5d a6 3d ec 3a c7 bc
       0.03972488 -0.12799898 0.081233785 -0.024320088
000040 da ab bc 3d 18 b0 d5 bc dd d3 ce bd 3e ae b8 3d
       0.092124656 -0.026084945 -0.100990035 0.09017609
000050 9f b9 09 3e 4b 0b d2 bc 9e d5 b7 bd 2b c0 3a bd
       0.13449715 -0.02564015 -0.08976291 -0.045593422
000060 37 47 01 3e cb 9b 3f bd e8 d5 40 bd e5 f8 af bd
       0.12624823 -0.046779435 -0.047078997 -0.08592395
000070 4a 3a c6 3c 99 c0 51 bb f8 01 af bd 98 0d 0a be
       0.024197716 -0.0032005666 -0.085452974 -0.13481748
000080 67 22 11 bd 54 43 5c bd 13 0c ab 3d 79 bf 40 bd
       -0.0354332 -0.053775147 0.08351912 -0.047057603
000090 b6 07 aa 3d 0b ad 21 bd 5a a8 49 bd 47 65 a3 bd
       0.08302252 -0.039471667 -0.04923282 -0.079783015
0000a0 bc 23 d1 3d ff ae 14 3d 59 78 87 bb 70 57 91 bd
       0.10211894 0.0362997 -0.0041342196 -0.070967555
0000b0 4c 4e 33 be 3f bd b5 3d c4 4d cf 3d 01 91 e3 bc
       -0.17510337 0.088739865 0.101222545 -0.027779104
0000c0 d5 35 57 bc 0b a5 31 bd a2 f8 ef bd 96 cf a5 bd
       -0.013135393 -0.043370288 -0.11717345 -0.080962345
0000d0 7b 5a a0 bd f3 a3 b3 bd d3 56 e3 3a 5a 1e d2 bd
       -0.07829758 -0.08771505 0.0017344601 -0.10259695
0000e0 b9 5c d0 3d 80 4a 30 3e 98 e6 18 3e 19 a6 72 bd
       0.101739354 0.1721592 0.14931715 -0.059240434
0000f0 ac c0 bd 3d e2 1c 0c 3e 39 ce 03 3d 00 92 02 3d
       0.09265265 0.13682893 0.03217909 0.031877518
000100 c5 63 b4 3d 6c 01 b8 3c 1a eb 7a 3d e1 2c c4 bd
       0.08808092 0.022461616 0.061259367 -0.095788725
000110 46 2c 88 bd 23 0d 0b bd 6f c7 8a bd 65 00 a2 bd
       -0.066490695 -0.033948075 -0.0677632 -0.079102315
000120 21 0e 8c 3d 02 b5 8a 3d af 35 d2 3d eb f9 db 3b
       0.068386324 0.06772806 0.102641456 0.006713142
000130 46 79 3f 3d 00 80 f2 bc c3 a7 81 bc 3f 2e 58 3d
       0.046746515 -0.02960205 -0.015827065 0.05277848
000140 68 20 4c bd e8 01 f2 bd 9f e2 47 bd 5c d4 9f bc
       -0.049835593 -0.1181677 -0.048800107 -0.01951044
000150 30 0d 1e 3d 81 b2 b6 3d 04 7a aa 3d ca b4 f7 bd
       0.038586795 0.08920766 0.08324054 -0.1209503
000160 f6 57 d6 3d 24 0f 23 3d d8 8c 81 bd bb 8a bd 3d
       0.10465996 0.03980936 -0.06325692 0.09254976
000170 5a 5e d2 3c 76 fa 17 bc 6f 93 3f 3c cb 6a ab bb
       0.025679756 -0.009276023 0.011692866 -0.0052312366
000180 7c 92 14 bd 6a 2c 98 3d 40 69 00 3d 86 68 47 bd
       -0.03627251 0.07430346 0.031350374 -0.048683666
000190 62 ad 68 bd 56 0a 6d 3c fb 65 63 3d 06 fa 5e 3d
       -0.056805976 0.014467796 0.055517178 0.05443766
0001a0 13 aa b2 3c 42 cc 94 bc 24 64 e6 bd 58 ec 14 bd
       0.021809613 -0.018163804 -0.11249569 -0.036358207
0001b0 e2 37 ad 3d 18 d3 f1 3d 85 83 28 3d e3 0c f2 3d
       0.084579244 0.11807841 0.04114105 0.11818864
0001c0 20 e1 85 bc d0 de ae 3d a4 21 85 bc d6 01 3a 3d
       -0.0163427 0.08538592 -0.016251393 0.045411907
0001d0 47 b4 5a 3d e6 9f 57 3d 63 b5 d0 3c c1 51 7f 3c
       0.053394582 0.052642725 0.025477117 0.0155834565
0001e0 8a 5b 53 bd b1 ed 02 be 2a 8f 04 be ee 49 4c bd
       -0.05160097 -0.12785985 -0.12945238 -0.049875192
0001f0 ce 7b 95 bd d4 47 b2 bd 58 43 f2 3d 5f 8a e6 3c
       -0.072990045 -0.087051064 0.11829251 0.028142152
000200 17 8c 1d be e5 8d 98 3c 05 bf 7f bd c1 8e bc bd
       -0.15385471 0.018622348 -0.06243803 -0.09206916
000210 f0 c2 c4 3c 04 36 8b bd 0e 2c 8c 3d 8d 25 08 3c
       0.024018735 -0.06797412 0.0684434 0.008309734
000220 e1 66 60 3c 50 99 26 be 56 4a 58 bc e5 84 cc bd
       0.013696403 -0.16269422 -0.013201317 -0.09986285
000230 86 c7 32 3c 03 1c 94 3d 86 45 0f be f7 ea 38 3c
       0.010911828 0.07231905 -0.13991365 0.011286489
000240 d2 75 c9 bd 32 49 04 be 39 82 d1 3d 84 b8 4a bd
       -0.098369256 -0.12918547 0.10229916 -0.049492374
000250 20 2f a1 bd a7 e5 15 3d c5 a7 a8 3d bd ce 9f bd
       -0.078703165 0.036595967 0.082351245 -0.07803104
000260 68 06 a4 bd 91 67 3a 3e 2f 85 5a bc 6d de c6 bd
       -0.080090344 0.1820357 -0.0133374175 -0.09710393
000270 a4 07 0c be 0c c6 b3 3d f8 3c 8e bb ac ac c6 bd
       -0.1367479 0.08778009 -0.004340764 -0.09700903
000280 9e 03 2f bd ef 51 5b 3d 58 b4 be bd 89 2c 0c be
       -0.04272806 0.053544935 -0.093117416 -0.13688864
000290 67 55 b8 bd 80 af 03 be ec fd 23 3d 55 82 89 3d
       -0.09000664 -0.12859917 0.04003708 0.06714312
0002a0 12 c2 c0 bc 43 4c f7 3d a0 85 4d bd 2c 1e 23 bd
       -0.02353004 0.12075093 -0.050176263 -0.039823696
0002b0 52 50 a6 3d 14 75 a6 bc c6 c6 b0 3d d2 fc 04 3c
       0.08120789 -0.0203195 0.08631663 0.008116918
0002c0 61 86 8a 3d fc d1 09 3e ce b2 41 3d 21 b7 18 3e
       0.06763912 0.13459009 0.047289662 0.14913608
0002d0 00 90 a1 bd fd 4c 3f bd 9b ac 86 bd 0a 9b fd 3d
       -0.07888794 -0.04670428 -0.06575891 0.12383087
0002e0 31 f6 49 3d 4b d5 5d 3d 44 a5 2b 3d 3d 02 01 bd
       0.049307052 0.05415849 0.041905656 -0.031496275
0002f0 5e b8 fd 3d b1 2a cf 3d 77 25 22 be 91 d6 c3 3d
       0.12388681 0.101155646 -0.15834604 0.0956241
000300 60 92 94 bd f0 aa c5 bb 94 23 ec bd 10 c1 36 3d
       -0.07254481 -0.00603234 -0.115302235 0.044617712
000310 b5 d2 ae 3d 3f 7f b0 bd 3d 88 26 bc 92 1d 88 3d
       0.08536283 -0.0861802 -0.010164318 0.06646265
000320 07 af fc bb 43 af 40 bd 8f 92 b3 bb b2 d4 6d 3d
       -0.0077112946 -0.047042143 -0.0054801176 0.05806417
000330 f6 ca 7a 3d 1e 6d 80 3d a5 eb fd 3d b2 44 fd bd
       0.061228715 0.062708125 0.12398461 -0.12366618
000340 d0 4a 7d 3c 1e 09 41 3d 0a d2 a2 3d 38 fc 53 bd
       0.015459731 0.047127835 0.07950218 -0.051754206
000350 34 45 0f 3d 00 ca f2 bd e5 95 85 bc e6 59 e1 3c
       0.034978107 -0.11854935 -0.016306827 0.027508687
000360 59 61 98 bd 72 3f a6 bd 65 c8 af 3c 06 92 62 bd
       -0.074404426 -0.0811757 0.02145786 -0.05531504
000370 cb 2d f6 bc 7d e4 80 3d b3 dc 20 be fb 61 59 ba
       -0.030051133 0.06293581 -0.1570919 -0.00082924933
000380 18 4c ff 3d a8 62 06 3e cb 85 cd 3d fe 1e bd bd
       0.124656856 0.13123572 0.100352846 -0.09234427
000390 43 68 a9 bd 71 43 08 3c 94 da 78 3d 0b 87 90 3c
       -0.082718395 0.0083168605 0.060755327 0.017642519
0003a0 3c a5 a7 3d dc df 3c bd 24 a1 e7 3d 14 04 a5 3d
       0.08185813 -0.046111926 0.11310032 0.080574185
0003b0 03 c5 17 3e 27 70 bf 3c 06 17 d0 bd da cf c4 3d
       0.14821248 0.023368908 -0.10160641 0.09609957
0003c0 ae 20 a1 bd d9 61 8a bd cd 5d ae 3d d7 b3 01 be
       -0.07867561 -0.06756944 0.08513985 -0.1266626
0003d0 3f 5a 2e be 7c 06 ef bd 69 fa 22 3d d8 a5 c6 bd
       -0.17026614 -0.11671159 0.03978959 -0.09699601
0003e0 7e 52 1c be 49 95 14 be 2e 25 89 3d 8f 55 ce 3d
       -0.15265843 -0.14510073 0.066965446 0.10074913
0003f0 fc 64 63 bc 26 bd de bd 87 5b 88 bc 34 da cb 3d
       -0.013879057 -0.10875921 -0.016645206 0.09953728

fc2.bias f4 [32]
000000 3e 18 9e bd 8b e2 fc bd e6 92 35 bd f1 5e 89 3d
       -0.077194676 -0.12347897 -0.044329546 0.06707562
000010 5e ef ad 3d 40 ab 75 3d d0 3e de 3d 9c 92 bf bd
       0.08492921 0.05997777 0.10851824 -0.093541354
000020 b8 5f e4 3d 68 19 53 bb cd ff 08 be d9 54 d7 3d
       0.111510694 -0.0032211188 -0.1337883 0.1051423
000030 19 32 85 bc e8 63 7c 3b 68 63 5f bd 31 00 7c 3d
       -0.01625924 0.0038511697 -0.05453816 0.06152362
000040 4d 47 61 bc 75 3b d5 bc 69 bd 22 bc d2 3d 06 3e
       -0.01374991 -0.026029328 -0.009932854 0.1310952
000050 a8 c0 11 39 60 09 ac bd 4d 66 e4 bd 72 95 16 3d
       0.00013900048 -0.08400226 -0.11152325 0.036763616
000060 d8 6d 16 bd e6 58 d2 3d 78 39 03 be b1 13 51 3d
       -0.03672585 0.10270862 -0.12814891 0.05104417
000070 88 0d 71 bc d9 17 b0 bb e0 fd 51 bd 8b 7a b6 bd
       -0.014712699 -0.0053739366 -0.051267505 -0.08910092

output.weight f4 [1, 32]
000000 8a 1c 50 be 0e 77 ef bd 7a e2 07 3e 53 f0 11 3e
       -0.20323387 -0.1169263 0.13269988 0.14251833
000010 77 bc ab bd dd 75 a4 bd 6f ef 2b 3d 86 6e 04 3e
       -0.08385556 -0.08030293 0.04197639 0.12932786
000020 cb e6 18 3e 84 19 20 3d 61 ca ad 3c 09 02 0d 3e
       0.1493179 0.039086834 0.021214666 0.13770308
000030 a2 fd bf 3b 2d b2 ac 3d 86 4f 9b bd 7b 7f 3d bd
       0.005859093 0.08432422 -0.07583527 -0.046264153
000040 a3 ca 71 bd 68 c7 14 be d1 d4 18 3e 61 f8 29 3e
       -0.05903114 -0.14529192 0.14924933 0.16598655
000050 cd ef ea bd b9 85 24 be f1 32 70 3c f8 d5 5c be
       -0.114715196 -0.16066636 0.014660583 -0.21565998
000060 45 b2 7e 3e f4 d9 56 3d be 38 bc bd 0e 16 74 be
       0.24872692 0.05245395 -0.0919051 -0.23836538
000070 af da 60 bd a4 48 e2 bd 17 6f 0f 3e 2a 6d d1 bd
       -0.054896053 -0.11049011 0.14007221 -0.102258995
