models/trained_model.pth (torch, 12932 bytes, 5 tensors)

fc1.weight f4 [64, 6]
000000 87 93 b4 be 6d b9 d3 bd f4 17 d8 be 10 b8 dd bd
       -0.35268804 -0.103381015 -0.42205775 -0.10826123
000010 85 6e 3d be 8b d0 b3 3d 17 76 bf 3c 88 89 ad be
       -0.18499191 0.08780011 0.02337174 -0.3389399
000020 5f 40 4c bd dd 2e 0e 3d d3 17 82 3d 8f be 79 be
       -0.049866077 0.03471266 0.063522 -0.24389099
000030 eb ef 68 be 00 14 ce 3d c7 bf 38 3e eb 1e ff bd
       -0.22747771 0.100624084 0.18041907 -0.12457069
000040 2c 17 8d bc 79 cd f9 3e 3c 8c b2 3e 1a 7b 39 be
       -0.017222963 0.48789576 0.34872615 -0.18113366
000050 8b 18 b9 3e e8 f3 e0 bb 9b f5 83 be cd e0 c8 3e
       0.36151537 -0.0068650134 -0.2577332 0.3923401
000060 22 58 8b 3e 20 4f 72 bc 92 a4 c8 3e ce df 6e 3d
       0.27215677 -0.014789373 0.39188057 0.058318906
000070 05 b9 0c be 7a df 33 be 2f 60 80 be 7f b4 25 3e
       -0.13742454 -0.17565718 -0.25073382 0.16182135
000080 41 b6 3f be e6 ff 97 be a3 41 c4 be 4f 4a eb bd
       -0.18721868 -0.29687423 -0.38331327 -0.114887826
000090 35 3e af be 89 3b fd 3d 4e 07 12 be 21 b7 7d be
       -0.34227148 0.12364871 -0.14260599 -0.2477689
0000a0 c1 0d 98 3e 33 8a ce bd c8 2e c9 3d 42 66 ae 3e
       0.29697993 -0.10084953 0.09823376 0.34062392
0000b0 a4 fc 4c be f1 3d 11 3e c7 f0 bc 3e b7 58 04 bd
       -0.2001825 0.14183785 0.3690245 -0.032311168
0000c0 a0 97 e8 3d 5b 39 74 3e 65 90 ac be d6 fe 0e bd
       0.11357045 0.23850004 -0.33703914 -0.034911
0000d0 72 4b 12 3d 65 c4 cd be b9 b6 fb 3d 40 26 6a 3d
       0.03571648 -0.401889 0.12290711 0.057165384
0000e0 b9 9b a3 be 3c 0c 83 be 97 a4 0d 3e fc c9 cf 3e
       -0.31954744 -0.25595272 0.13832317 0.4058379
0000f0 ba 7e 57 3e f3 64 85 3e 4e 6d ca 3d 38 1d 96 be
       0.21044436 0.2605358 0.098841295 -0.29319167
000100 34 77 e5 3e 58 33 d1 3e 2c 23 69 bd 58 34 2c be
       0.44817507 0.40859485 -0.05691831 -0.16816843
000110 7d 82 ac be 25 72 c4 be eb 09 74 be 89 05 47 be
       -0.33693305 -0.38368335 -0.23831908 -0.19435705
000120 ee 63 14 be 79 77 81 3e 19 2b 30 3e 99 32 a4 bd
       -0.14491245 0.25286463 0.1720394 -0.08017463
000130 1e 70 96 be cc 19 b4 bc f7 5e 6e be f4 10 75 3e
       -0.29382414 -0.021984957 -0.23278414 0.23932248
000140 ef 0c 98 be 87 40 77 3e c3 32 ac be b8 12 13 be
       -0.29697368 0.24145709 -0.33632478 -0.1436261
000150 a6 71 81 be b0 b2 36 3e e9 7e 22 be f5 68 5b be
       -0.2528202 0.17841601 -0.15868725 -0.21426757
000160 4c fe a2 3e 81 e4 07 be dd 4f 03 3e 0d 64 f0 3c
       0.31834638 -0.13270761 0.12823434 0.029344583
000170 b5 7a 80 bd e1 7d 4b 3e bf 96 c8 be 3c 34 eb 3c
       -0.062734045 0.19872238 -0.3917751 0.02871143
000180 b4 b7 07 be ae 9c 89 3e 70 1e b2 3e 23 6d ce 3e
       -0.13253671 0.2687735 0.34788847 0.4031764
000190 81 39 d6 be 14 b3 20 3e 0d ba 99 3e 62 c2 78 be
       -0.41840747 0.15693313 0.30024758 -0.24292901
0001a0 f2 32 24 be 69 1b e3 3d 05 d8 99 be ba ef c5 3e
       -0.16035059 0.110892124 -0.30047622 0.3865946
0001b0 5f 32 26 be e8 e1 d4 be 86 e5 80 bd 73 2a 27 be
       -0.16230153 -0.41578603 -0.06293778 -0.16324787
0001c0 a0 ab c7 3e 71 d0 0a 3d b3 e5 3d 3e 30 46 8d 3e
       0.38998127 0.03389019 0.18544655 0.2759261
0001d0 f5 d9 ab 3e 56 86 3b be 64 ec 41 be 54 2c 17 be
       0.33564726 -0.18312964 -0.18937832 -0.14763004
0001e0 ef a3 b6 3e bb 40 a4 3e 6e 37 0b 3e 09 07 cb 3e
       0.35671946 0.32080635 0.13595363 0.39653805
0001f0 a0 5a 08 bc 02 39 96 3e 08 55 5a 3e 9a 0f b7 3e
       -0.008322388 0.29340369 0.213215 0.3575409
000200 21 df a1 3d af 1a 40 3d 0d c6 59 be d7 91 cc 3c
       0.079038866 0.046900447 -0.21266957 0.024971886
000210 e8 63 8f 3e 67 3c 1f 3e f2 b3 71 bd a8 f8 69 be
       0.2800591 0.15550385 -0.0590095 -0.22848761
000220 3f 2a 91 bc 40 72 09 bd 38 25 be 3d d4 a1 31 be
       -0.01772034 -0.033556223 0.09284443 -0.17346889
000230 2f c7 8b 3d eb c6 bb be 1c 48 6a 3e f4 7c 3f be
       0.06825101 -0.366752 0.2287907 -0.1870001
000240 59 54 c5 be 2f 2a d5 3d 26 8d 61 be 8f 35 1a 3d
       -0.38540915 0.104084365 -0.220265 0.037648734
000250 06 2c 8e be 4f 8e 0d 3e fc 67 87 be 8f b6 b5 be
       -0.27767962 0.13823818 -0.2644652 -0.35490844
000260 f8 10 2f 3e a6 76 32 3e dd 7f 2d 3e 9b 91 8b be
       0.17096317 0.17428073 0.16943307 -0.27259526
000270 06 35 c3 3e 5a 43 30 3e 74 27 cc 39 02 b4 e2 3c
       0.3812639 0.17213193 0.00038939307 0.027673725
000280 29 25 a4 3e 68 c8 ad 3c fc c9 ee be 1a 6d ca bc
       0.320596 0.021213725 -0.46638477 -0.024710227
000290 12 c0 dd 3e 67 08 d0 be 48 7e 0b 3d 81 9d 08 bd
       0.433106 -0.4063141 0.034055978 -0.033353332
0002a0 63 95 36 bd 66 0d ca 3e 04 1e 51 3e 1b 82 ba 3e
       -0.04457606 0.39463347 0.20421606 0.36427388
0002b0 12 6a 9d be 1d 71 aa 3e 38 d4 24 3e 9d 52 80 3d
       -0.30744988 0.33289424 0.1609658 0.06265757
0002c0 e0 cb 07 3e 14 50 16 3e 94 bb ac 3e 0f d5 99 3e
       0.13261366 0.14678985 0.3373686 0.30045363
0002d0 ca b6 95 be 3b ce 43 be f5 d5 3b 3e 0b 9a 0c 3e
       -0.2924102 -0.1912164 0.18343337 0.13730638
0002e0 75 68 95 bd cf c2 c6 3d 98 f8 a7 be 78 81 b4 be
       -0.07295314 0.097051255 -0.3280685 -0.35255027
0002f0 5b f0 de bd b8 e9 b0 be e2 f2 4a 3e 63 72 be be
       -0.10885688 -0.34553313 0.19819215 -0.37196645
000300 d3 84 9a 3e b2 7b 5d be a6 ea bd 3e f3 74 a6 3e
       0.30179462 -0.21629217 0.37093085 0.325111
000310 6e 95 e4 bd e7 32 89 be 2f fb af 3e 30 c2 5f be
       -0.11161314 -0.26796648 0.34371325 -0.2185142
000320 ca 9d ba be 8f e0 a8 be 91 2a 6f 3e cd fd c8 3d
       -0.36448509 -0.32983825 0.23356082 0.09814034
000330 f1 b5 53 be d8 f2 c7 3c fa f9 8e bd 05 2d 8a 3e
       -0.20674874 0.02440779 -0.06981273 0.26987472
000340 0e cc 0d be 30 76 ba 3e 26 3d 80 3d da 32 b0 3e
       -0.13847372 0.36418295 0.06261663 0.34413797
000350 28 c8 25 bd 56 08 84 bd aa 7f 80 be 0e 4d 3e 3e
       -0.040474087 -0.064469025 -0.250974 0.18584082
000360 43 67 41 3d 2e 03 81 3e 5b d8 8d be f2 6e a1 3e
       0.04721762 0.25197738 -0.2770413 0.31529957
000370 b3 57 df be 0e 7e 27 be e4 38 ca be 3c de 64 3e
       -0.43621597 -0.1635668 -0.3949653 0.223504
000380 d3 4b 72 be d2 86 9c be 12 6b 31 3e 21 cb b5 be
       -0.23661737 -0.3057161 0.17326 -0.35506538
000390 5f 71 2e be 57 aa a0 bd 57 c8 74 be e4 24 b6 3e
       -0.17035435 -0.0784499 -0.23904549 0.3557502
0003a0 0a 44 1d be 5f 5d b9 3e 16 2f b3 3e 86 ed b4 be
       -0.15357986 0.3620405 0.3499686 -0.35337466
0003b0 07 06 ae be b9 1d 60 3e f4 bc 54 3e e4 41 66 bd
       -0.33988973 0.21886338 0.20775205 -0.056215182
0003c0 32 2d b5 3e 2f 88 82 be fb ac 2d 3c 86 9e fa bd
       0.35386044 -0.25494525 0.010600324 -0.12237267
0003d0 e3 17 83 3e c1 09 b6 3e 9f a4 01 3d 4f ff 87 3e
       0.25604162 0.35554317 0.031651136 0.26561972
0003e0 09 ad bf 3e 2f 79 8c be 62 de 32 bd 17 3d c4 be
       0.37436703 -0.27436206 -0.043669112 -0.38327858
0003f0 ea ac b8 be e8 30 65 be 20 cf c4 be 9f aa 7b bd
       -0.36069423 -0.22381938 -0.38439274 -0.061442014

fc1.bias f4 [64]
000000 63 01 87 3e 45 c2 ab 3e f7 4f 94 be fb cb 8f be
       0.26368245 0.33546653 -0.28967258 -0.28085312
000010 c5 17 3d be e3 33 98 3e ee 2b a1 3e 6c 33 82 bb
       -0.18466099 0.29727086 0.31478828 -0.003973415
000020 ed d3 99 3e 88 71 46 be 16 3c 90 3d 7e 45 2a 3e
       0.300445 -0.19379246 0.070427105 0.16628072
000030 12 1e 9b 3d 56 79 42 bd 3b 46 b2 3e b6 10 f8 bd
       0.07574095 -0.047478996 0.34819207 -0.12112562
000040 bf 48 a4 3e 4e 0f 51 be a6 14 ac be f1 fe df 3d
       0.3208675 -0.20415995 -0.33609504 0.10937298
000050 9b a8 8b 3e 92 fb 76 3c 5c 3f 89 3e 2d 6e 8a be
       0.27277073 0.0150746275 0.26806152 -0.27037182
000060 f2 c6 a0 3e 45 60 ab be c8 9c 2f 3e 9c 3b 94 be
       0.31401783 -0.33471885 0.17149651 -0.28951728
000070 d5 36 63 3e ec e9 98 bb c1 3a 1d be d4 29 8f be
       0.22188886 -0.0046665575 -0.15354444 -0.279616
000080 33 2a f0 bd dc 35 7c bd 56 05 a4 be 35 9a 85 bd
       -0.11726799 -0.0615748 -0.3203532 -0.06523553
000090 57 d1 08 be 6c 9b 73 be 57 aa 46 3e f6 72 f4 3d
       -0.13361107 -0.23789757 0.19400917 0.119359896
0000a0 d4 4c 38 be 46 fc 23 be 0a 11 a7 be 62 b7 74 be
       -0.17998058 -0.16014203 -0.32630187 -0.2389808
0000b0 ba 1e bb be 65 de 32 bd 6a 0a 0e 3c 56 dd 9e bd
       -0.3654688 -0.043669123 0.008669475 -0.0775706
0000c0 d8 5d 06 3e 8b a7 52 3e 55 6a 3d 3c ee 57 eb bd
       0.13121736 0.20571725 0.011560996 -0.11491381
0000d0 cc da ef 3d 96 b5 96 be 36 36 2a be 37 1d 83 be
       0.11711654 -0.29435414 -0.16622242 -0.25608227
0000e0 af ff 64 3d d2 a1 0a be e8 14 b3 bd 58 e1 be be
       0.0559079 -0.13538292 -0.08744222 -0.372813
0000f0 5a 9c 43 bd 83 b9 89 3e 5b e3 11 3c b9 d2 98 3e
       -0.04775653 0.26899347 0.008904303 0.2984827

fc2.weight f4 [32, 64]
000000 34 9a 81 3d 1a 92 70 bc f5 42 66 3d 13 a5 fb 3d
       0.0632824 -0.014683271 0.0562162 0.12287345
000010 28 11 ba 3d b1 28 78 bd 34 0f 95 bd 49 2a 9b 3c
       0.090853035 -0.06058568 -0.072782904 0.018941062
000020 03 88 92 bc 40 64 16 be 4f 20 ef bd 51 57 14 3e
       -0.017887121 -0.1468668 -0.11676084 0.14486434
000030 b3 89 2b bd 4d c9 6c bb 6e 4a 8a 3c 58 03 23 bd
       -0.041879367 -0.0036130727 0.016881194 -0.03979811
000040 44 33 cf 3a ae 7e c8 3d 73 3d 7b 3c c4 20 06 be
       0.0015808125 0.09789787 0.015334475 -0.13098437
000050 c3 8e 93 bd 3a 6a 60 bd cd 07 aa 3d 4a e3 e7 3d
       -0.07204964 -0.054788806 0.08302269 0.11322649
000060 a1 02 7e 3c c1 f7 81 bd b5 25 af bd 11 d4 38 be
       0.0155035565 -0.063460834 -0.08552114 -0.18049647
000070 7a f8 51 bd 8d 4b 84 bd 75 20 de 3d 2d 4e c7 3c
       -0.051262356 -0.06459723 0.108460344 0.02432927
000080 26 29 41 bd d5 85 80 3d f0 73 a1 3c 96 44 09 be
       -0.047158383 0.062755264 0.019708604 -0.1340507
000090 5a 48 25 bd 8a 04 b9 3c 42 65 ac 3c 69 ff 0f bd
       -0.040352203 0.022585172 0.021044377 -0.035155687
0000a0 8e 9f 21 3d 85 82 76 3d c5 7a 05 3e 2d 9f b0 3d
       0.039458804 0.060183067 0.13035114 0.0862411
0000b0 53 40 80 3d 27 a2 69 3d 4a 09 f8 bd 57 62 9d 3c
       0.06262269 0.057039406 -0.12111147 0.019211931
0000c0 27 0e dd 3d 6b 3f 57 3d 81 35 f4 3c e7 a4 73 bd
       0.10793715 0.052550714 0.029810669 -0.059483435
0000d0 ba 81 d7 3d 35 6e 02 bc e1 d7 7e 3d c0 20 d4 3c
       0.1052279 -0.007960846 0.062217597 0.025894523
0000e0 26 37 aa 3d 38 1b 0f be 7f b1 c5 bd ea ae 12 3d
       0.083113 -0.13975227 -0.09652995 0.035811342
0000f0 a7 f2 00 3e 97 2a da bd 80 b2 46 3e f3 4b a0 bc
       0.12592565 -0.106526546 0.1940403 -0.019567465
000100 89 35 8d 3d f5 b0 0d bd 6f e3 e0 3d 5f 47 0c be
       0.06894977 -0.034592588 0.109808795 -0.13699101
000110 03 2c e5 3d d8 aa 86 bd 6f fd 21 3a ab 31 81 3d
       0.11190035 -0.065755546 0.0006179427 0.063083015
000120 e3 18 8d 3d f4 f1 ca bc 4e 22 a7 bd 20 ae 0b 3e
       0.068895124 -0.024773575 -0.0816084 0.13640642
000130 7e 67 87 3d fc 3f 42 3d c1 c2 02 bc 58 40 4e bd
       0.066115364 0.0474243 -0.007981003 -0.05035433
000140 20 9d 8b ba c2 26 b1 bb a8 6f 52 3d fa a8 7a 3c
       -0.0010651685 -0.0054062316 0.051376015 0.015299076
000150 31 36 0a be c6 94 f9 3c 1b a5 41 bd 85 bb ea bc
       -0.13497235 0.030466449 -0.047276597 -0.02865387
000160 94 57 25 bc 6a 65 44 3c ba 37 9e 3d d1 17 2e 3c
       -0.010091681 0.01198707 0.07725473 0.010625795
000170 59 ea da bd 8c 0e 51 3d 20 93 22 3c 92 da 95 bd
       -0.106892295 0.051039264 0.009922773 -0.073170796
000180 cb 60 9b 3d f1 9f 0e 3c ba e9 56 3c 1e fe a7 bc
       0.07586821 0.008705125 0.013117248 -0.020506915
000190 05 8e d7 bd 2f f3 2f 3c e2 a5 b8 3d fc d4 0e 3e
       -0.10525135 0.010739132 0.09016015 0.13948435
0001a0 d6 57 9a 3d 4d c5 9c bb f6 da 17 bd 68 9b 9c bd
       0.075362846 -0.0047842623 -0.03707405 -0.07646829
0001b0 64 b2 b3 3c 6f 8f 09 3e 20 8f 21 be cf 16 06 bd
       0.02193565 0.13433622 -0.15777254 -0.032736596
0001c0 83 29 2f 3e 49 39 6d 3d e0 64 28 3c 32 d5 b4 bc
       0.17105679 0.05791596 0.010277957 -0.022074316
0001d0 06 fa 0f bd 16 ae ad 3d 5c 70 13 3d f4 fc 08 bd
       -0.03515055 0.0848047 0.035995826 -0.03344436
0001e0 93 ea 0a be c6 c8 90 bd 02 73 97 bd 5e 03 12 be
       -0.13566045 -0.070695445 -0.07394983 -0.14259097
0001f0 b8 95 13 3e d8 9f 56 3d 67 c8 43 3e 22 ac 4c bc
       0.14412582 0.052398533 0.19119416 -0.012492212
000200 c4 a5 c4 bc 51 0a 7d bd 31 5f 2c 3c 8c f4 ad bd
       -0.024004824 -0.061777417 0.010520742 -0.08493909
000210 ec 28 91 bd 2a fb 91 bd bb 75 ca bd a2 8a 8c 3d
       -0.07087883 -0.07127984 -0.098857366 0.068623796
000220 01 85 eb bd 32 e3 47 bd 31 d8 90 3d 79 ab a6 bc
       -0.11499978 -0.048800655 0.07072485 -0.020345436
000230 06 b4 df 3c a1 f3 87 3d 8d 38 ba bc 6d d1 96 bd
       0.027307522 0.066382654 -0.022732044 -0.073641635
000240 1d 83 b7 3d 6f d6 dc bd 08 a5 8b 3c fd be c3 bd
       0.08960555 -0.107830875 0.017046466 -0.095579125
000250 54 c3 a4 bd 60 4d 49 3d 2a f4 ac 3c 69 c2 c1 bd
       -0.080450684 0.049146056 0.02111252 -0.09460909
000260 af 0e 83 3b 99 88 6f 3d 49 76 a8 bd 79 18 2c bd
       0.003999553 0.05847988 -0.08225686 -0.042015526
000270 40 47 79 3d b9 a4 83 bc 24 b7 d0 3d a6 60 a5 3d
       0.060858965 -0.016069757 0.10191181 0.08075075
000280 c4 00 23 be 51 4a 27 be d5 8a 10 bd 9c 77 f7 3d
       -0.15918261 -0.16336943 -0.03528865 0.120833606
000290 d2 8b d2 3d 51 54 82 3d 99 2e 89 3d 03 ae 1d 3d
       0.10280575 0.06363738 0.06698341 0.03849603
0002a0 38 a8 bc bc 64 80 8e 3d f5 d9 24 3e 72 66 37 3e
       -0.023029432 0.06958082 0.16098769 0.17910174
0002b0 a1 aa ca 3d 29 cc ac bd 1c db f1 3c 1c 72 2b bd
       0.09895826 -0.08437378 0.029523425 -0.04185687
0002c0 7a aa e8 bd 4c 21 bf bc 11 1a d2 3d ac 0c 23 3e
       -0.11360641 -0.023331307 0.10258878 0.15922803
0002d0 ea e9 ed bc 20 96 da bd 2b 37 a2 3d 95 4f 8f bc
       -0.029042203 -0.10673165 0.07920679 -0.017494002
0002e0 4b fc 4d 3d ec 61 f7 3d dd 6a f9 3d 52 a4 f7 bd
       0.050289433 0.12079224 0.12178586 -0.120918885
0002f0 4b ec c6 bb a3 be d2 3d 6d 72 b4 bd 47 fd 1a be
       -0.006070649 0.10290267 -0.088108875 -0.1513568
000300 ba cb e2 bd a9 5f e9 3d 7d 67 12 3d ca b3 d7 3d
       -0.11074014 0.11395199 0.035743225 0.10532339
000310 34 2c e6 39 93 82 05 bd 2a 52 00 3e 54 8c cb bd
       0.00043901952 -0.03259523 0.12531343 -0.09938875
000320 ca 30 85 bd 39 69 56 bd db 9b 6a 3d 8d 55 b6 3d
       -0.065034464 -0.052346442 0.05727754 0.08903036
000330 fb 55 fe bd be 5d b3 3d ee 89 e1 3d 32 67 f7 3c
       -0.12418743 0.08758114 0.11012636 0.030200575
000340 2f 2e 1f bd b9 60 5d 3d 14 39 1f 3e 9d 0d b2 3d
       -0.038862403 0.05404732 0.15549117 0.08694003
000350 8b 7d 4a 3d c6 3c ee bd bf 1f f5 bd 48 24 27 bd
       0.049436133 -0.11632685 -0.11968946 -0.040806085
000360 97 93 65 3d 5d de f6 3d e1 5f 40 bd d7 f8 b4 3d
       0.056048956 0.12054131 -0.046966437 0.08836525
000370 93 c7 e0 bd 8e b6 9c bd 8b 24 aa bd ea 51 c7 bb
       -0.10975566 -0.07652007 -0.08307751 -0.006082763
000380 45 79 91 3d 24 f5 11 bd 24 04 a8 bd 23 4b 9d bd
       0.071032085 -0.035634175 -0.08203915 -0.07680347
000390 ff 87 50 3b 8c c0 a1 bc 91 be 81 bc d6 53 0a be
       0.0031819341 -0.019745134 -0.01583794 -0.13508543
0003a0 62 cd f8 3d 85 a3 d8 bd 42 53 74 3d 10 00 f7 bc
       0.12148549 -0.10578064 0.059649713 -0.030151397
0003b0 61 d5 e1 3d d1 1c 57 3d d5 2e 7a bd 6e 06 f8 bd
       0.11027027 0.052517716 -0.06107982 -0.12110601
0003c0 e7 ba ca bd ad 0c 87 bd 34 2b 41 bd fb a1 80 3d
       -0.0989893 -0.065942146 -0.047160342 0.06280895
0003d0 72 ff db bd 40 87 c2 3d fe 85 85 bb 89 10 5b 3d
       -0.10742082 0.09498453 -0.004074811 0.053482566
0003e0 0c e7 a0 3c 44 0a 4a bc ed 47 7e 3d f3 f4 bc 3d
       0.019641422 -0.012331549 0.062080313 0.09226408
0003f0 16 79 ab bb 7e cb dd 3c 68 5a a8 3c fc 67 88 bd
       -0.0052329404 0.027074572 0.020550922 -0.066604584

fc2.bias f4 [32]
000000 99 76 94 3d 0a 57 51 bc 5e ac c1 3d f4 1b fc bc
       0.07249183 -0.012777099 0.094567046 -0.030775048
000010 bc 1d 46 bd 67 77 ca 3d 1b b5 3c bd 9a 89 98 bd
       -0.0483682 0.098860554 -0.046071153 -0.074481204
000020 71 9b 11 bd 10 b9 61 3d 7b 69 00 be 61 6c 1d 3d
       -0.03554863 0.05510813 -0.12540238 0.038433436
000030 92 11 ae bd b1 73 76 3d cb 22 af 3d 95 ea a0 bb
       -0.08499445 0.060168926 0.08551558 -0.004910777
000040 8f 0d d9 3d b7 c2 f9 bd 05 11 a1 bc c7 1c d0 bd
       0.10598289 -0.12195342 -0.019661436 -0.10161739
000050 f9 9d c2 3a 43 75 98 bd 5b a4 10 be 85 f1 17 bd
       0.0014848105 -0.07444241 -0.14125197 -0.037095565
000060 f5 5b ae 3d 58 a8 a9 3d 43 2b ae 3d e6 9b 83 3d
       0.08513633 0.08284062 0.08504345 0.0642622
000070 67 06 a1 3d f8 50 2b 3d 49 3b c2 bd 3f 2d 82 bd
       0.07862549 0.041825265 -0.09483964 -0.06356286

output.weight f4 [1, 32]
000000 01 fb 6c be 95 63 a3 bd c7 c2 25 be bc 9d a1 3c
       -0.23142625 -0.07977978 -0.16187583 0.019728534
000010 e1 68 2e 3e 3c 8e 3d 3e ad 86 9a bd 7f 71 04 be
       0.17032196 0.1851129 -0.075452186 -0.1293392
000020 8d ed 44 be c1 11 7f bd aa 7c 1a be 9b b5 8d bd
       -0.19231243 -0.06227279 -0.15086618 -0.06919404
000030 40 7c 42 3c a0 54 56 bd df 12 e0 3d 82 8a 3c bd
       0.011870444 -0.0523268 0.109410994 -0.04603053
000040 61 14 11 be ae e4 0c 3e 65 49 52 3d c1 1a d7 bd
       -0.1416793 0.1375911 0.051339526 -0.1050315
000050 a1 c2 30 bd 1f 5e 6c 3d 27 27 4f bd 7c 09 22 3e
       -0.043154363 0.05770695 -0.050574448 0.1582393
000060 96 04 a8 bd 38 9a d1 3d 2b bb 51 bd df b8 00 3e
       -0.08204 0.10234493 -0.051203888 0.12570523
000070 b0 33 c8 3c f3 5a 69 3d 8c 76 db bd cd 5e 0e 3e
       0.024438709 0.0569715 -0.107159704 0.13903351
